…
0761, 0.1854, 0.2752, 0.3652, 0.4282, 0.5238, 0.5653, 0.6334, 0.745], 'bpp_threshold': [0.02, 0.02, 0.02, 0.02, 0.03, 0.02, 0.02, 0.02, 0.02], 'min_lmbda': 0.001, 'init_lmbda': [0.001, 0.0018, 0.0035, 0.0035, 0.0067, 0.0067, 0.013, 0.013, 0.025, 0.0483], 'lower_bound': 1e-09, 'ki': 0.1, 'kp': 0.1}
24-04-05 13:51:25.482 - INFO: DistributedDataParallel(
  (module): MLICPlusPlus(
    (entropy_bottleneck): EntropyBottleneck(
      (likelihood_lower_bound): LowerBound()
    )
    (g_a): AnalysisTransform(
      (analysis_transform): Sequential(
        (0): ResidualBlockWithStride(
          (conv1): Conv2d(3, 192, kernel_size=(3, 3), stride=(2, 2), padding=(1, 1))
          (act): GELU(approximate='none')
          (conv2): Conv2d(192, 192, kernel_size=(3, 3), stride=(1, 1), padding=(1, 1))
          (gdn): GDN(
            (beta_reparam): NonNegativeParametrizer(
              (lower_bound): LowerBound()
            )
            (gamma_reparam): NonNegativeParametrizer(
              (lower_bound): LowerBound()
            )
          )
          (skip): Conv2d(3, 192, kernel_size=(1, 1), stride=(2, 2))
        )
        (1): ResidualBlock(
          (conv1): Conv2d(192, 192, kernel_size=(3, 3), stride=(1, 1), padding=(1, 1))
          (act): GELU(approximate='none')
          (conv2): Conv2d(192, 192, kernel_size=(3, 3), stride=(1, 1), padding=(1, 1))
        )
        (2): ResidualBlockWithStride(
          (conv1): Conv2d(192, 192, kernel_size=(3, 3), stride=(2, 2), padding=(1, 1))
          (act): GELU(approximate='none')
          (conv2): Conv2d(192, 192, kernel_size=(3, 3), stride=(1, 1), padding=(1, 1))
          (gdn): GDN(
            (beta_reparam): NonNegativeParametrizer(
              (lower_bound): LowerBound()
            )
            (gamma_reparam): NonNegativeParametrizer(
              (lower_bound): LowerBound()
            )
          )
          (skip): Conv2d(192, 192, kernel_size=(1, 1), stride=(2, 2))
        )
        (3): ResidualBlock(
          (conv1): Conv2d(192, 192, kernel_size=(3, 3), stride=(1, 1), padding=(1, 1))
          (act): GELU(approximate='none')
          (conv2): Conv2d(192, 192, kernel_size=(3, 3), stride=(1, 1), padding=(1, 1))
        )
        (4): ResidualBlockWithStride(
          (conv1): Conv2d(192, 192, kernel_size=(3, 3), stride=(2, 2), padding=(1, 1))
          (act): GELU(approximate='none')
          (conv2): Conv2d(192, 192, kernel_size=(3, 3), stride=(1, 1), padding=(1, 1))
          (gdn): GDN(
            (beta_reparam): NonNegativeParametrizer(
              (lower_bound): LowerBound()
            )
            (gamma_reparam): NonNegativeParametrizer(
              (lower_bound): LowerBound()
            )
          )
          (skip): Conv2d(192, 192, kernel_size=(1, 1), stride=(2, 2))
        )
        (5): ResidualBlock(
          (conv1): Conv2d(192, 192, kernel_size=(3, 3), stride=(1, 1), padding=(1, 1))
          (act): GELU(approximate='none')
          (conv2): Conv2d(192, 192, kernel_size=(3, 3), stride=(1, 1), padding=(1, 1))
        )
        (6): Conv2d(192, 320, kernel_size=(3, 3), stride=(2, 2), padding=(1, 1))
      )
    )
    (g_s): SynthesisTransform(
      (synthesis_transform): Sequential(
        (0): ResidualBlock(
          (conv1): Conv2d(320, 320, kernel_size=(3, 3), stride=(1, 1), padding=(1, 1))
          (act): GELU(approximate='none')
          (conv2): Conv2d(320, 320, kernel_size=(3, 3), stride=(1, 1), padding=(1, 1))
        )
        (1): ResidualBlockUpsample(
          (subpel_conv): Sequential(
            (0): Conv2d(320, 768, kernel_size=(3, 3), stride=(1, 1), padding=(1, 1))
            (1): PixelShuffle(upscale_factor=2)
          )
          (act): GELU(approximate='none')
          (conv): Conv2d(192, 192, kernel_size=(3, 3), stride=(1, 1), padding=(1, 1))
          (igdn): GDN(
            (beta_reparam): NonNegativeParametrizer(
              (lower_bound): LowerBound()
            )
            (gamma_reparam): NonNegativeParametrizer(
              (lower_bound): LowerBound()
            )
          )
          (upsample): Sequential(
            (0): Conv2d(320, 768, kernel_size=(3, 3), stride=(1, 1), padding=(1, 1))
            (1): PixelShuffle(upscale_factor=2)
          )
        )
        (2): ResidualBlock(
          (conv1): Conv2d(192, 192, kernel_size=(3, 3), stride=(1, 1), padding=(1, 1))
          (act): GELU(approximate='none')
          (conv2): Conv2d(192, 192, kernel_size=(3, 3), stride=(1, 1), padding=(1, 1))
        )
        (3): ResidualBlockUpsample(
          (subpel_conv): Sequential(
            (0): Conv2d(192, 768, kernel_size=(3, 3), stride=(1, 1), padding=(1, 1))
            (1): PixelShuffle(upscale_factor=2)
          )
          (act): GELU(approximate='none')
          (conv): Conv2d(192, 192, kernel_size=(3, 3), stride=(1, 1), padding=(1, 1))
          (igdn): GDN(
            (beta_reparam): NonNegativeParametrizer(
              (lower_bound): LowerBound()
            )
            (gamma_reparam): NonNegativeParametrizer(
              (lower_bound): LowerBound()
            )
          )
          (upsample): Sequential(
            (0): Conv2d(192, 768, kernel_size=(3, 3), stride=(1, 1), padding=(1, 1))
            (1): PixelShuffle(upscale_factor=2)
          )
        )
        (4): ResidualBlock(
          (conv1): Conv2d(192, 192, kernel_size=(3, 3), stride=(1, 1), padding=(1, 1))
          (act): GELU(approximate='none')
          (conv2): Conv2d(192, 192, kernel_size=(3, 3), stride=(1, 1), padding=(1, 1))
        )
        (5): ResidualBlockUpsample(
          (subpel_conv): Sequential(
            (0): Conv2d(192, 768, kernel_size=(3, 3), stride=(1, 1), padding=(1, 1))
            (1): PixelShuffle(upscale_factor=2)
          )
          (act): GELU(approximate='none')
          (conv): Conv2d(192, 192, kernel_size=(3, 3), stride=(1, 1), padding=(1, 1))
          (igdn): GDN(
            (beta_reparam): NonNegativeParametrizer(
              (lower_bound): LowerBound()
            )
            (gamma_reparam): NonNegativeParametrizer(
              (lower_bound): LowerBound()
            )
          )
          (upsample): Sequential(
            (0): Conv2d(192, 768, kernel_size=(3, 3), stride=(1, 1), padding=(1, 1))
            (1): PixelShuffle(upscale_factor=2)
          )
        )
        (6): ResidualBlock(
          (conv1): Conv2d(192, 192, kernel_size=(3, 3), stride=(1, 1), padding=(1, 1))
          (act): GELU(approximate='none')
          (conv2): Conv2d(192, 192, kernel_size=(3, 3), stride=(1, 1), padding=(1, 1))
        )
        (7): Sequential(
          (0): Conv2d(192, 12, kernel_size=(3, 3), stride=(1, 1), padding=(1, 1))
          (1): PixelShuffle(upscale_factor=2)
        )
      )
    )
    (h_a): HyperAnalysis(
      (reduction): Sequential(
        (0): Conv2d(320, 192, kernel_size=(3, 3), stride=(1, 1), padding=(1, 1))
        (1): GELU(approximate='none')
        (2): Conv2d(192, 192, kernel_size=(3, 3), stride=(1, 1), padding=(1, 1))
        (3): GELU(approximate='none')
        (4): Conv2d(192, 192, kernel_size=(3, 3), stride=(2, 2), padding=(1, 1))
        (5): GELU(approximate='none')
        (6): Conv2d(192, 192, kernel_size=(3, 3), stride=(1, 1), padding=(1, 1))
        (7): GELU(approximate='none')
        (8): Conv2d(192, 192, kernel_size=(3, 3), stride=(2, 2), padding=(1, 1))
      )
    )
    (h_s): HyperSynthesis(
      (increase): Sequential(
        (0): Conv2d(192, 320, kernel_size=(3, 3), stride=(1, 1), padding=(1, 1))
        (1): GELU(approximate='none')
        (2): Sequential(
          (0): Conv2d(320, 1280, kernel_size=(3, 3), stride=(1, 1), padding=(1, 1))
          (1): PixelShuffle(upscale_factor=2)
        )
        (3): GELU(approximate='none')
        (4): Conv2d(320, 480, kernel_size=(3, 3), stride=(1, 1), padding=(1, 1))
        (5): GELU(approximate='none')
        (6): Sequential(
          (0): Conv2d(480, 1920, kernel_size=(3, 3), stride=(1, 1), padding=(1, 1))
          (1): PixelShuffle(upscale_factor=2)
        )
        (7): GELU(approximate='none')
        (8): Conv2d(480, 640, kernel_size=(3, 3), stride=(1, 1), padding=(1, 1))
      )
    )
    (gaussian_conditional): GaussianConditional(
      (likelihood_lower_bound): LowerBound()
      (lower_bound_scale): LowerBound()
    )
    (local_context): ModuleList(
      (0-9): 10 x LocalContext(
        (qkv_proj): Linear(in_features=32, out_features=96, bias=True)
        (unfold): Unfold(kernel_size=5, dilation=1, padding=2, stride=1)
        (softmax): Softmax(dim=-1)
        (proj): Linear(in_features=64, out_features=64, bias=True)
        (mlp): MLP(
          (fc1): Linear(in_features=64, out_features=128, bias=True)
          (act): GELU(approximate='none')
          (fc2): Linear(in_features=128, out_features=64, bias=True)
          (drop): Dropout(p=0.0, inplace=False)
        )
        (norm1): LayerNorm((32,), eps=1e-05, elementwise_affine=True)
        (norm2): LayerNorm((64,), eps=1e-05, elementwise_affine=True)
        (fusion): Conv2d(32, 64, kernel_size=(5, 5), stride=(1, 1))
      )
    )
    (channel_context): ModuleList(
      (0): None
      (1): ChannelContext(
        (fushion): Sequential(
          (0): Conv2d(32, 192, kernel_size=(3, 3), stride=(1, 1), padding=(1, 1))
          (1): GELU(approximate='none')
          (2): Conv2d(192, 128, kernel_size=(3, 3), stride=(1, 1), padding=(1, 1))
          (3): GELU(approximate='none')
          (4): Conv2d(128, 128, kernel_size=(3, 3), stride=(1, 1), padding=(1, 1))
        )
      )
      (2): ChannelContext(
        (fushion): Sequential(
          (0): Conv2d(64, 192, kernel_size=(3, 3), stride=(1, 1), padding=(1, 1))
          (1): GELU(approximate='none')
          (2): Conv2d(192, 128, kernel_size=(3, 3), stride=(1, 1), padding=(1, 1))
          (3): GELU(approximate='none')
          (4): Conv2d(128, 128, kernel_size=(3, 3), stride=(1, 1), padding=(1, 1))
        )
      )
      (3): ChannelContext(
        (fushion): Sequential(
          (0): Conv2d(96, 192, kernel_size=(3, 3), stride=(1, 1), padding=(1, 1))
          (1): GELU(approximate='none')
          (2): Conv2d(192, 128, kernel_size=(3, 3), stride=(1, 1), padding=(1, 1))
          (3): GELU(approximate='none')
          (4): Conv2d(128, 128, kernel_size=(3, 3), stride=(1, 1), padding=(1, 1))
        )
      )
      (4): ChannelContext(
        (fushion): Sequential(
          (0): Conv2d(128, 192, kernel_size=(3, 3), stride=(1, 1), padding=(1, 1))
          (1): GELU(approximate='none')
          (2): Conv2d(192, 128, kernel_size=(3, 3), stride=(1, 1), padding=(1, 1))
          (3): GELU(approximate='none')
          (4): Conv2d(128, 128, kernel_size=(3, 3), stride=(1, 1), padding=(1, 1))
        )
      )
      (5): ChannelContext(
        (fushion): Sequential(
          (0): Conv2d(160, 192, kernel_size=(3, 3), stride=(1, 1), padding=(1, 1))
          (1): GELU(approximate='none')
          (2): Conv2d(192, 128, kernel_size=(3, 3), stride=(1, 1), padding=(1, 1))
          (3): GELU(approximate='none')
          (4): Conv2d(128, 128, kernel_size=(3, 3), stride=(1, 1), padding=(1, 1))
        )
      )
      (6): ChannelContext(
        (fushion): Sequential(
          (0): Conv2d(192, 192, kernel_size=(3, 3), stride=(1, 1), padding=(1, 1))
          (1): GELU(approximate='none')
          (2): Conv2d(192, 128, kernel_size=(3, 3), stride=(1, 1), padding=(1, 1))
          (3): GELU(approximate='none')
          (4): Conv2d(128, 128, kernel_size=(3, 3), stride=(1, 1), padding=(1, 1))
        )
      )
      (7): ChannelContext(
        (fushion): Sequential(
          (0): Conv2d(224, 192, kernel_size=(3, 3), stride=(1, 1), padding=(1, 1))
          (1): GELU(approximate='none')
          (2): Conv2d(192, 128, kernel_size=(3, 3), stride=(1, 1), padding=(1, 1))
          (3): GELU(approximate='none')
          (4): Conv2d(128, 128, kernel_size=(3, 3), stride=(1, 1), padding=(1, 1))
        )
      )
      (8): ChannelContext(
        (fushion): Sequential(
          (0): Conv2d(256, 192, kernel_size=(3, 3), stride=(1, 1), padding=(1, 1))
          (1): GELU(approximate='none')
          (2): Conv2d(192, 128, kernel_size=(3, 3), stride=(1, 1), padding=(1, 1))
          (3): GELU(approximate='none')
          (4): Conv2d(128, 128, kernel_size=(3, 3), stride=(1, 1), padding=(1, 1))
        )
      )
      (9): ChannelContext(
        (fushion): Sequential(
          (0): Conv2d(288, 192, kernel_size=(3, 3), stride=(1, 1), padding=(1, 1))
          (1): GELU(approximate='none')
          (2): Conv2d(192, 128, kernel_size=(3, 3), stride=(1, 1), padding=(1, 1))
          (3): GELU(approximate='none')
          (4): Conv2d(128, 128, kernel_size=(3, 3), stride=(1, 1), padding=(1, 1))
        )
      )
    )
    (global_inter_context): ModuleList(
      (0): None
      (1): LinearGlobalInterContext(
        (keys): Sequential(
          (0): Conv2d(32, 32, kernel_size=(1, 1), stride=(1, 1))
          (1): Conv2d(32, 32, kernel_size=(3, 3), stride=(1, 1), padding=(1, 1), groups=32)
        )
        (queries): Sequential(
          (0): Conv2d(32, 32, kernel_size=(1, 1), stride=(1, 1))
          (1): Conv2d(32, 32, kernel_size=(3, 3), stride=(1, 1), padding=(1, 1), groups=32)
        )
        (values): Sequential(
          (0): Conv2d(32, 32, kernel_size=(1, 1), stride=(1, 1))
          (1): Conv2d(32, 32, kernel_size=(3, 3), stride=(1, 1), padding=(1, 1), groups=32)
        )
        (reprojection): Conv2d(32, 96, kernel_size=(5, 5), stride=(1, 1), padding=(2, 2))
        (mlp): Sequential(
          (0): Conv2d(96, 128, kernel_size=(1, 1), stride=(1, 1))
          (1): GELU(approximate='none')
          (2): Conv2d(128, 128, kernel_size=(3, 3), stride=(1, 1), padding=(1, 1), groups=128)
          (3): GELU(approximate='none')
          (4): Conv2d(128, 64, kernel_size=(1, 1), stride=(1, 1))
        )
        (skip): Conv2d(96, 64, kernel_size=(1, 1), stride=(1, 1))
      )
      (2): LinearGlobalInterContext(
        (keys): Sequential(
          (0): Conv2d(64, 64, kernel_size=(1, 1), stride=(1, 1))
          (1): Conv2d(64, 64, kernel_size=(3, 3), stride=(1, 1), padding=(1, 1), groups=64)
        )
        (queries): Sequential(
          (0): Conv2d(64, 64, kernel_size=(1, 1), stride=(1, 1))
          (1): Conv2d(64, 64, kernel_size=(3, 3), stride=(1, 1), padding=(1, 1), groups=64)
        )
        (values): Sequential(
          (0): Conv2d(64, 64, kernel_size=(1, 1), stride=(1, 1))
          (1): Conv2d(64, 64, kernel_size=(3, 3), stride=(1, 1), padding=(1, 1), groups=64)
        )
        (reprojection): Conv2d(64, 96, kernel_size=(5, 5), stride=(1, 1), padding=(2, 2))
        (mlp): Sequential(
          (0): Conv2d(96, 128, kernel_size=(1, 1), stride=(1, 1))
          (1): GELU(approximate='none')
          (2): Conv2d(128, 128, kernel_size=(3, 3), stride=(1, 1), padding=(1, 1), groups=128)
          (3): GELU(approximate='none')
          (4): Conv2d(128, 64, kernel_size=(1, 1), stride=(1, 1))
        )
        (skip): Conv2d(96, 64, kernel_size=(1, 1), stride=(1, 1))
      )
      (3): LinearGlobalInterContext(
        (keys): Sequential(
          (0): Conv2d(96, 96, kernel_size=(1, 1), stride=(1, 1))
          (1): Conv2d(96, 96, kernel_size=(3, 3), stride=(1, 1), padding=(1, 1), groups=96)
        )
        (queries): Sequential(
          (0): Conv2d(96, 96, kernel_size=(1, 1), stride=(1, 1))
          (1): Conv2d(96, 96, kernel_size=(3, 3), stride=(1, 1), padding=(1, 1), groups=96)
        )
        (values): Sequential(
          (0): Conv2d(96, 96, kernel_size=(1, 1), stride=(1, 1))
          (1): Conv2d(96, 96, kernel_size=(3, 3), stride=(1, 1), padding=(1, 1), groups=96)
        )
        (reprojection): Conv2d(96, 96, kernel_size=(5, 5), stride=(1, 1), padding=(2, 2))
        (mlp): Sequential(
          (0): Conv2d(96, 128, kernel_size=(1, 1), stride=(1, 1))
          (1): GELU(approximate='none')
          (2): Conv2d(128, 128, kernel_size=(3, 3), stride=(1, 1), padding=(1, 1), groups=128)
          (3): GELU(approximate='none')
          (4): Conv2d(128, 64, kernel_size=(1, 1), stride=(1, 1))
        )
        (skip): Conv2d(96, 64, kernel_size=(1, 1), stride=(1, 1))
      )
      (4): LinearGlobalInterContext(
        (keys): Sequential(
          (0): Conv2d(128, 128, kernel_size=(1, 1), stride=(1, 1))
          (1): Conv2d(128, 128, kernel_size=(3, 3), stride=(1, 1), padding=(1, 1), groups=128)
        )
        (queries): Sequential(
          (0): Conv2d(128, 128, kernel_size=(1, 1), stride=(1, 1))
          (1): Conv2d(128, 128, kernel_size=(3, 3), stride=(1, 1), padding=(1, 1), groups=128)
        )
        (values): Sequential(
          (0): Conv2d(128, 128, kernel_size=(1, 1), stride=(1, 1))
          (1): Conv2d(128, 128, kernel_size=(3, 3), stride=(1, 1), padding=(1, 1), groups=128)
        )
        (reprojection): Conv2d(128, 96, kernel_size=(5, 5), stride=(1, 1), padding=(2, 2))
        (mlp): Sequential(
          (0): Conv2d(96, 128, kernel_size=(1, 1), stride=(1, 1))
          (1): GELU(approximate='none')
          (2): Conv2d(128, 128, kernel_size=(3, 3), stride=(1, 1), padding=(1, 1), groups=128)
          (3): GELU(approximate='none')
          (4): Conv2d(128, 64, kernel_size=(1, 1), stride=(1, 1))
        )
        (skip): Conv2d(96, 64, kernel_size=(1, 1), stride=(1, 1))
      )
      (5): LinearGlobalInterContext(
        (keys): Sequential(
          (0): Conv2d(160, 160, kernel_size=(1, 1), stride=(1, 1))
          (1): Conv2d(160, 160, kernel_size=(3, 3), stride=(1, 1), padding=(1, 1), groups=160)
        )
        (queries): Sequential(
          (0): Conv2d(160, 160, kernel_size=(1, 1), stride=(1, 1))
          (1): Conv2d(160, 160, kernel_size=(3, 3), stride=(1, 1), padding=(1, 1), groups=160)
        )
        (values): Sequential(
          (0): Conv2d(160, 160, kernel_size=(1, 1), stride=(1, 1))
          (1): Conv2d(160, 160, kernel_size=(3, 3), stride=(1, 1), padding=(1, 1), groups=160)
        )
        (reprojection): Conv2d(160, 96, kernel_size=(5, 5), stride=(1, 1), padding=(2, 2))
        (mlp): Sequential(
          (0): Conv2d(96, 128, kernel_size=(1, 1), stride=(1, 1))
          (1): GELU(approximate='none')
          (2): Conv2d(128, 128, kernel_size=(3, 3), stride=(1, 1), padding=(1, 1), groups=128)
          (3): GELU(approximate='none')
          (4): Conv2d(128, 64, kernel_size=(1, 1), stride=(1, 1))
        )
        (skip): Conv2d(96, 64, kernel_size=(1, 1), stride=(1, 1))
      )
      (6): LinearGlobalInterContext(
        (keys): Sequential(
          (0): Conv2d(192, 192, kernel_size=(1, 1), stride=(1, 1))
          (1): Conv2d(192, 192, kernel_size=(3, 3), stride=(1, 1), padding=(1, 1), groups=192)
        )
        (queries): Sequential(
          (0): Conv2d(192, 192, kernel_size=(1, 1), stride=(1, 1))
          (1): Conv2d(192, 192, kernel_size=(3, 3), stride=(1, 1), padding=(1, 1), groups=192)
        )
        (values): Sequential(
          (0): Conv2d(192, 192, kernel_size=(1, 1), stride=(1, 1))
          (1): Conv2d(192, 192, kernel_size=(3, 3), stride=(1, 1), padding=(1, 1), groups=192)
        )
        (reprojection): Conv2d(192, 96, kernel_size=(5, 5), stride=(1, 1), padding=(2, 2))
        (mlp): Sequential(
          (0): Conv2d(96, 128, kernel_size=(1, 1), stride=(1, 1))
          (1): GELU(approximate='none')
          (2): Conv2d(128, 128, kernel_size=(3, 3), stride=(1, 1), padding=(1, 1), groups=128)
          (3): GELU(approximate='none')
          (4): Conv2d(128, 64, kernel_size=(1, 1), stride=(1, 1))
        )
        (skip): Conv2d(96, 64, kernel_size=(1, 1), stride=(1, 1))
      )
      (7): LinearGlobalInterContext(
        (keys): Sequential(
          (0): Conv2d(224, 224, kernel_size=(1, 1), stride=(1, 1))
          (1): Conv2d(224, 224, kernel_size=(3, 3), stride=(1, 1), padding=(1, 1), groups=224)
        )
        (queries): Sequential(
          (0): Conv2d(224, 224, kernel_size=(1, 1), stride=(1, 1))
          (1): Conv2d(224, 224, kernel_size=(3, 3), stride=(1, 1), padding=(1, 1), groups=224)
        )
        (values): Sequential(
          (0): Conv2d(224, 224, kernel_size=(1, 1), stride=(1, 1))
          (1): Conv2d(224, 224, kernel_size=(3, 3), stride=(1, 1), padding=(1, 1), groups=224)
        )
        (reprojection): Conv2d(224, 96, kernel_size=(5, 5), stride=(1, 1), padding=(2, 2))
        (mlp): Sequential(
          (0): Conv2d(96, 128, kernel_size=(1, 1), stride=(1, 1))
          (1): GELU(approximate='none')
          (2): Conv2d(128, 128, kernel_size=(3, 3), stride=(1, 1), padding=(1, 1), groups=128)
          (3): GELU(approximate='none')
          (4): Conv2d(128, 64, kernel_size=(1, 1), stride=(1, 1))
        )
        (skip): Conv2d(96, 64, kernel_size=(1, 1), stride=(1, 1))
      )
      (8): LinearGlobalInterContext(
        (keys): Sequential(
          (0): Conv2d(256, 256, kernel_size=(1, 1), stride=(1, 1))
          (1): Conv2d(256, 256, kernel_size=(3, 3), stride=(1, 1), padding=(1, 1), groups=256)
        )
        (queries): Sequential(
          (0): Conv2d(256, 256, kernel_size=(1, 1), stride=(1, 1))
          (1): Conv2d(256, 256, kernel_size=(3, 3), stride=(1, 1), padding=(1, 1), groups=256)
        )
        (values): Sequential(
          (0): Conv2d(256, 256, kernel_size=(1, 1), stride=(1, 1))
          (1): Conv2d(256, 256, kernel_size=(3, 3), stride=(1, 1), padding=(1, 1), groups=256)
        )
        (reprojection): Conv2d(256, 96, kernel_size=(5, 5), stride=(1, 1), padding=(2, 2))
        (mlp): Sequential(
          (0): Conv2d(96, 128, kernel_size=(1, 1), stride=(1, 1))
          (1): GELU(approximate='none')
          (2): Conv2d(128, 128, kernel_size=(3, 3), stride=(1, 1), padding=(1, 1), groups=128)
          (3): GELU(approximate='none')
          (4): Conv2d(128, 64, kernel_size=(1, 1), stride=(1, 1))
        )
        (skip): Conv2d(96, 64, kernel_size=(1, 1), stride=(1, 1))
      )
      (9): LinearGlobalInterContext(
        (keys): Sequential(
          (0): Conv2d(288, 288, kernel_size=(1, 1), stride=(1, 1))
          (1): Conv2d(288, 288, kernel_size=(3, 3), stride=(1, 1), padding=(1, 1), groups=288)
        )
        (queries): Sequential(
          (0): Conv2d(288, 288, kernel_size=(1, 1), stride=(1, 1))
          (1): Conv2d(288, 288, kernel_size=(3, 3), stride=(1, 1), padding=(1, 1), groups=288)
        )
        (values): Sequential(
          (0): Conv2d(288, 288, kernel_size=(1, 1), stride=(1, 1))
          (1): Conv2d(288, 288, kernel_size=(3, 3), stride=(1, 1), padding=(1, 1), groups=288)
        )
        (reprojection): Conv2d(288, 96, kernel_size=(5, 5), stride=(1, 1), padding=(2, 2))
        (mlp): Sequential(
          (0): Conv2d(96, 128, kernel_size=(1, 1), stride=(1, 1))
          (1): GELU(approximate='none')
          (2): Conv2d(128, 128, kernel_size=(3, 3), stride=(1, 1), padding=(1, 1), groups=128)
          (3): GELU(approximate='none')
          (4): Conv2d(128, 64, kernel_size=(1, 1), stride=(1, 1))
        )
        (skip): Conv2d(96, 64, kernel_size=(1, 1), stride=(1, 1))
      )
    )
    (global_intra_context): ModuleList(
      (0): None
      (1-9): 9 x LinearGlobalIntraContext(
        (keys): Sequential(
          (0): Conv2d(32, 32, kernel_size=(1, 1), stride=(1, 1))
          (1): Conv2d(32, 32, kernel_size=(3, 3), stride=(1, 1), padding=(1, 1), groups=32)
        )
        (queries): Sequential(
          (0): Conv2d(32, 32, kernel_size=(1, 1), stride=(1, 1))
          (1): Conv2d(32, 32, kernel_size=(3, 3), stride=(1, 1), padding=(1, 1), groups=32)
        )
        (values): Sequential(
          (0): Conv2d(32, 32, kernel_size=(1, 1), stride=(1, 1))
          (1): Conv2d(32, 32, kernel_size=(3, 3), stride=(1, 1), padding=(1, 1), groups=32)
        )
        (reprojection): Conv2d(32, 64, kernel_size=(5, 5), stride=(1, 1), padding=(2, 2))
        (mlp): Sequential(
          (0): Conv2d(64, 128, kernel_size=(1, 1), stride=(1, 1))
          (1): GELU(approximate='none')
          (2): Conv2d(128, 128, kernel_size=(3, 3), stride=(1, 1), padding=(1, 1), groups=128)
          (3): GELU(approximate='none')
          (4): Conv2d(128, 64, kernel_size=(1, 1), stride=(1, 1))
        )
      )
    )
    (entropy_parameters_anchor): ModuleList(
      (0): EntropyParameters(
        (fusion): Sequential(
          (0): Conv2d(640, 320, kernel_size=(1, 1), stride=(1, 1))
          (1): GELU(approximate='none')
          (2): Conv2d(320, 256, kernel_size=(1, 1), stride=(1, 1))
          (3): GELU(approximate='none')
          (4): Conv2d(256, 128, kernel_size=(1, 1), stride=(1, 1))
          (5): GELU(approximate='none')
          (6): Conv2d(128, 64, kernel_size=(1, 1), stride=(1, 1))
        )
      )
      (1-9): 9 x EntropyParameters(
        (fusion): Sequential(
          (0): Conv2d(832, 320, kernel_size=(1, 1), stride=(1, 1))
          (1): GELU(approximate='none')
          (2): Conv2d(320, 256, kernel_size=(1, 1), stride=(1, 1))
          (3): GELU(approximate='none')
          (4): Conv2d(256, 128, kernel_size=(1, 1), stride=(1, 1))
          (5): GELU(approximate='none')
          (6): Conv2d(128, 64, kernel_size=(1, 1), stride=(1, 1))
        )
      )
    )
    (entropy_parameters_nonanchor): ModuleList(
      (0): EntropyParameters(
        (fusion): Sequential(
          (0): Conv2d(704, 320, kernel_size=(1, 1), stride=(1, 1))
          (1): GELU(approximate='none')
          (2): Conv2d(320, 256, kernel_size=(1, 1), stride=(1, 1))
          (3): GELU(approximate='none')
          (4): Conv2d(256, 128, kernel_size=(1, 1), stride=(1, 1))
          (5): GELU(approximate='none')
          (6): Conv2d(128, 64, kernel_size=(1, 1), stride=(1, 1))
        )
      )
      (1-9): 9 x EntropyParameters(
        (fusion): Sequential(
          (0): Conv2d(960, 320, kernel_size=(1, 1), stride=(1, 1))
          (1): GELU(approximate='none')
          (2): Conv2d(320, 256, kernel_size=(1, 1), stride=(1, 1))
          (3): GELU(approximate='none')
          (4): Conv2d(256, 128, kernel_size=(1, 1), stride=(1, 1))
          (5): GELU(approximate='none')
          (6): Conv2d(128, 64, kernel_size=(1, 1), stride=(1, 1))
        )
      )
    )
    (lrp_anchor): ModuleList(
      (0): LatentResidualPrediction(
        (lrp_transform): Sequential(
          (0): Conv2d(352, 224, kernel_size=(3, 3), stride=(1, 1), padding=(1, 1))
          (1): GELU(approximate='none')
          (2): Conv2d(224, 128, kernel_size=(3, 3), stride=(1, 1), padding=(1, 1))
          (3): GELU(approximate='none')
          (4): Conv2d(128, 32, kernel_size=(3, 3), stride=(1, 1), padding=(1, 1))
        )
      )
      (1): LatentResidualPrediction(
        (lrp_transform): Sequential(
          (0): Conv2d(384, 224, kernel_size=(3, 3), stride=(1, 1), padding=(1, 1))
          (1): GELU(approximate='none')
          (2): Conv2d(224, 128, kernel_size=(3, 3), stride=(1, 1), padding=(1, 1))
          (3): GELU(approximate='none')
          (4): Conv2d(128, 32, kernel_size=(3, 3), stride=(1, 1), padding=(1, 1))
        )
      )
      (2): LatentResidualPrediction(
        (lrp_transform): Sequential(
          (0): Conv2d(416, 224, kernel_size=(3, 3), stride=(1, 1), padding=(1, 1))
          (1): GELU(approximate='none')
          (2): Conv2d(224, 128, kernel_size=(3, 3), stride=(1, 1), padding=(1, 1))
          (3): GELU(approximate='none')
          (4): Conv2d(128, 32, kernel_size=(3, 3), stride=(1, 1), padding=(1, 1))
        )
      )
      (3): LatentResidualPrediction(
        (lrp_transform): Sequential(
          (0): Conv2d(448, 224, kernel_size=(3, 3), stride=(1, 1), padding=(1, 1))
          (1): GELU(approximate='none')
          (2): Conv2d(224, 128, kernel_size=(3, 3), stride=(1, 1), padding=(1, 1))
          (3): GELU(approximate='none')
          (4): Conv2d(128, 32, kernel_size=(3, 3), stride=(1, 1), padding=(1, 1))
        )
      )
      (4): LatentResidualPrediction(
        (lrp_transform): Sequential(
          (0): Conv2d(480, 224, kernel_size=(3, 3), stride=(1, 1), padding=(1, 1))
          (1): GELU(approximate='none')
          (2): Conv2d(224, 128, kernel_size=(3, 3), stride=(1, 1), padding=(1, 1))
          (3): GELU(approximate='none')
          (4): Conv2d(128, 32, kernel_size=(3, 3), stride=(1, 1), padding=(1, 1))
        )
      )
      (5): LatentResidualPrediction(
        (lrp_transform): Sequential(
          (0): Conv2d(512, 224, kernel_size=(3, 3), stride=(1, 1), padding=(1, 1))
          (1): GELU(approximate='none')
          (2): Conv2d(224, 128, kernel_size=(3, 3), stride=(1, 1), padding=(1, 1))
          (3): GELU(approximate='none')
          (4): Conv2d(128, 32, kernel_size=(3, 3), stride=(1, 1), padding=(1, 1))
        )
      )
      (6): LatentResidualPrediction(
        (lrp_transform): Sequential(
          (0): Conv2d(544, 224, kernel_size=(3, 3), stride=(1, 1), padding=(1, 1))
          (1): GELU(approximate='none')
          (2): Conv2d(224, 128, kernel_size=(3, 3), stride=(1, 1), padding=(1, 1))
          (3): GELU(approximate='none')
          (4): Conv2d(128, 32, kernel_size=(3, 3), stride=(1, 1), padding=(1, 1))
        )
      )
      (7): LatentResidualPrediction(
        (lrp_transform): Sequential(
          (0): Conv2d(576, 224, kernel_size=(3, 3), stride=(1, 1), padding=(1, 1))
          (1): GELU(approximate='none')
          (2): Conv2d(224, 128, kernel_size=(3, 3), stride=(1, 1), padding=(1, 1))
          (3): GELU(approximate='none')
          (4): Conv2d(128, 32, kernel_size=(3, 3), stride=(1, 1), padding=(1, 1))
        )
      )
      (8): LatentResidualPrediction(
        (lrp_transform): Sequential(
          (0): Conv2d(608, 224, kernel_size=(3, 3), stride=(1, 1), padding=(1, 1))
          (1): GELU(approximate='none')
          (2): Conv2d(224, 128, kernel_size=(3, 3), stride=(1, 1), padding=(1, 1))
          (3): GELU(approximate='none')
          (4): Conv2d(128, 32, kernel_size=(3, 3), stride=(1, 1), padding=(1, 1))
        )
      )
      (9): LatentResidualPrediction(
        (lrp_transform): Sequential(
          (0): Conv2d(640, 224, kernel_size=(3, 3), stride=(1, 1), padding=(1, 1))
          (1): GELU(approximate='none')
          (2): Conv2d(224, 128, kernel_size=(3, 3), stride=(1, 1), padding=(1, 1))
          (3): GELU(approximate='none')
          (4): Conv2d(128, 32, kernel_size=(3, 3), stride=(1, 1), padding=(1, 1))
        )
      )
    )
    (lrp_nonanchor): ModuleList(
      (0): LatentResidualPrediction(
        (lrp_transform): Sequential(
          (0): Conv2d(352, 224, kernel_size=(3, 3), stride=(1, 1), padding=(1, 1))
          (1): GELU(approximate='none')
          (2): Conv2d(224, 128, kernel_size=(3, 3), stride=(1, 1), padding=(1, 1))
          (3): GELU(approximate='none')
          (4): Conv2d(128, 32, kernel_size=(3, 3), stride=(1, 1), padding=(1, 1))
        )
      )
      (1): LatentResidualPrediction(
        (lrp_transform): Sequential(
          (0): Conv2d(384, 224, kernel_size=(3, 3), stride=(1, 1), padding=(1, 1))
          (1): GELU(approximate='none')
          (2): Conv2d(224, 128, kernel_size=(3, 3), stride=(1, 1), padding=(1, 1))
          (3): GELU(approximate='none')
          (4): Conv2d(128, 32, kernel_size=(3, 3), stride=(1, 1), padding=(1, 1))
        )
      )
      (2): LatentResidualPrediction(
        (lrp_transform): Sequential(
          (0): Conv2d(416, 224, kernel_size=(3, 3), stride=(1, 1), padding=(1, 1))
          (1): GELU(approximate='none')
          (2): Conv2d(224, 128, kernel_size=(3, 3), stride=(1, 1), padding=(1, 1))
          (3): GELU(approximate='none')
          (4): Conv2d(128, 32, kernel_size=(3, 3), stride=(1, 1), padding=(1, 1))
        )
      )
      (3): LatentResidualPrediction(
        (lrp_transform): Sequential(
          (0): Conv2d(448, 224, kernel_size=(3, 3), stride=(1, 1), padding=(1, 1))
          (1): GELU(approximate='none')
          (2): Conv2d(224, 128, kernel_size=(3, 3), stride=(1, 1), padding=(1, 1))
          (3): GELU(approximate='none')
          (4): Conv2d(128, 32, kernel_size=(3, 3), stride=(1, 1), padding=(1, 1))
        )
      )
      (4): LatentResidualPrediction(
        (lrp_transform): Sequential(
          (0): Conv2d(480, 224, kernel_size=(3, 3), stride=(1, 1), padding=(1, 1))
          (1): GELU(approximate='none')
          (2): Conv2d(224, 128, kernel_size=(3, 3), stride=(1, 1), padding=(1, 1))
          (3): GELU(approximate='none')
          (4): Conv2d(128, 32, kernel_size=(3, 3), stride=(1, 1), padding=(1, 1))
        )
      )
      (5): LatentResidualPrediction(
        (lrp_transform): Sequential(
          (0): Conv2d(512, 224, kernel_size=(3, 3), stride=(1, 1), padding=(1, 1))
          (1): GELU(approximate='none')
          (2): Conv2d(224, 128, kernel_size=(3, 3), stride=(1, 1), padding=(1, 1))
          (3): GELU(approximate='none')
          (4): Conv2d(128, 32, kernel_size=(3, 3), stride=(1, 1), padding=(1, 1))
        )
      )
      (6): LatentResidualPrediction(
        (lrp_transform): Sequential(
          (0): Conv2d(544, 224, kernel_size=(3, 3), stride=(1, 1), padding=(1, 1))
          (1): GELU(approximate='none')
          (2): Conv2d(224, 128, kernel_size=(3, 3), stride=(1, 1), padding=(1, 1))
          (3): GELU(approximate='none')
          (4): Conv2d(128, 32, kernel_size=(3, 3), stride=(1, 1), padding=(1, 1))
        )
      )
      (7): LatentResidualPrediction(
        (lrp_transform): Sequential(
          (0): Conv2d(576, 224, kernel_size=(3, 3), stride=(1, 1), padding=(1, 1))
          (1): GELU(approximate='none')
          (2): Conv2d(224, 128, kernel_size=(3, 3), stride=(1, 1), padding=(1, 1))
          (3): GELU(approximate='none')
          (4): Conv2d(128, 32, kernel_size=(3, 3), stride=(1, 1), padding=(1, 1))
        )
      )
      (8): LatentResidualPrediction(
        (lrp_transform): Sequential(
          (0): Conv2d(608, 224, kernel_size=(3, 3), stride=(1, 1), padding=(1, 1))
          (1): GELU(approximate='none')
          (2): Conv2d(224, 128, kernel_size=(3, 3), stride=(1, 1), padding=(1, 1))
          (3): GELU(approximate='none')
          (4): Conv2d(128, 32, kernel_size=(3, 3), stride=(1, 1), padding=(1, 1))
        )
      )
      (9): LatentResidualPrediction(
        (lrp_transform): Sequential(
          (0): Conv2d(640, 224, kernel_size=(3, 3), stride=(1, 1), padding=(1, 1))
          (1): GELU(approximate='none')
          (2): Conv2d(224, 128, kernel_size=(3, 3), stride=(1, 1), padding=(1, 1))
          (3): GELU(approximate='none')
          (4): Conv2d(128, 32, kernel_size=(3, 3), stride=(1, 1), padding=(1, 1))
        )
      )
    )
  )
)
24-04-05 13:51:25.491 - INFO: Learning rate: 0.0001
24-04-05 13:51:48.964 - INFO: Train epoch 500: [    0/94637 (0%)] Step: [1479001] | Lr: 0.000100 | Loss: 1.1368 | MSE loss: 0.0002 | Bpp loss: 0.73 | Aux loss: 38.28
24-04-05 13:52:36.662 - INFO: Train epoch 500: [ 3200/94637 (3%)] Step: [1479101] | Lr: 0.000100 | Loss: 1.4095 | MSE loss: 0.0003 | Bpp loss: 0.85 | Aux loss: 40.34
…
